…
train_path = 'E:\Tensorflow-Face-Recognition-master\Deep-Learning-Face-Recognition-master\DATASET\trainingImages'
valid_path = 'E:\Tensorflow-Face-Recognition-master\Deep-Learning-Face-Recognition-master\DATASET\TestImages'

# add preprocessing layer to the front of VGG
vgg =VGGFace(input_shape=IMAGE_SIZE + [3], weights='vggface', include_top=False)
vgg.summary()


output - 
Model: "vggface_vgg16"
_________________________________________________________________
Layer (type)                 Output Shape              Param #   
=================================================================
input_1 (InputLayer)         (None, 224, 224, 3)       0         
_________________________________________________________________
conv1_1 (Conv2D)             (None, 224, 224, 64)      1792      
_________________________________________________________________
conv1_2 (Conv2D)             (None, 224, 224, 64)      36928     
_________________________________________________________________
pool1 (MaxPooling2D)         (None, 112, 112, 64)      0         
_________________________________________________________________
conv2_1 (Conv2D)             (None, 112, 112, 128)     73856     
_________________________________________________________________
conv2_2 (Conv2D)             (None, 112, 112, 128)     147584    
_________________________________________________________________
pool2 (MaxPooling2D)         (None, 56, 56, 128)       0         
_________________________________________________________________
conv3_1 (Conv2D)             (None, 56, 56, 256)       295168    
_________________________________________________________________
conv3_2 (Conv2D)             (None, 56, 56, 256)       590080    
_________________________________________________________________
conv3_3 (Conv2D)             (None, 56, 56, 256)       590080    
_________________________________________________________________
pool3 (MaxPooling2D)         (None, 28, 28, 256)       0         
_________________________________________________________________
conv4_1 (Conv2D)             (None, 28, 28, 512)       1180160   
_________________________________________________________________
conv4_2 (Conv2D)             (None, 28, 28, 512)       2359808   
_________________________________________________________________
conv4_3 (Conv2D)             (None, 28, 28, 512)       2359808   
_________________________________________________________________
pool4 (MaxPooling2D)         (None, 14, 14, 512)       0         
_________________________________________________________________
conv5_1 (Conv2D)             (None, 14, 14, 512)       2359808   
_________________________________________________________________
conv5_2 (Conv2D)             (None, 14, 14, 512)       2359808   
_________________________________________________________________
conv5_3 (Conv2D)             (None, 14, 14, 512)       2359808   
_________________________________________________________________
pool5 (MaxPooling2D)         (None, 7, 7, 512)         0         
=================================================================
Total params: 14,714,688
Trainable params: 14,714,688
Non-trainable params: 0
_________________________________________________________________



for layer in vgg.layers:
    layer.trainable = False

folders = glob(r'E:\Tensorflow-Face-Recognition-master\Deep-Learning-Face-Recognition-master\DATASET\trainingImages\*')
folders  
…
 'E:\\Tensorflow-Face-Recognition-master\\Deep-Learning-Face-Recognition-master\\DATASET\\trainingImages\\priyanka',
 'E:\\Tensorflow-Face-Recognition-master\\Deep-Learning-Face-Recognition-master\\DATASET\\trainingImages\\rachana']


x = Flatten()(vgg.output)
# x = Dense(1000, activation='relu')(x)
prediction = Dense(len(folders), activation='softmax')(x)
model = Model(inputs=vgg.input, outputs=prediction)
model.summary()

output - 
Model: "model_1"
_________________________________________________________________
Layer (type)                 Output Shape              Param #   
=================================================================
input_1 (InputLayer)         (None, 224, 224, 3)       0         
_________________________________________________________________
conv1_1 (Conv2D)             (None, 224, 224, 64)      1792      
_________________________________________________________________
conv1_2 (Conv2D)             (None, 224, 224, 64)      36928     
_________________________________________________________________
pool1 (MaxPooling2D)         (None, 112, 112, 64)      0         
_________________________________________________________________
conv2_1 (Conv2D)             (None, 112, 112, 128)     73856     
_________________________________________________________________
conv2_2 (Conv2D)             (None, 112, 112, 128)     147584    
_________________________________________________________________
pool2 (MaxPooling2D)         (None, 56, 56, 128)       0         
_________________________________________________________________
conv3_1 (Conv2D)             (None, 56, 56, 256)       295168    
_________________________________________________________________
conv3_2 (Conv2D)             (None, 56, 56, 256)       590080    
_________________________________________________________________
conv3_3 (Conv2D)             (None, 56, 56, 256)       590080    
_________________________________________________________________
pool3 (MaxPooling2D)         (None, 28, 28, 256)       0         
_________________________________________________________________
conv4_1 (Conv2D)             (None, 28, 28, 512)       1180160   
_________________________________________________________________
conv4_2 (Conv2D)             (None, 28, 28, 512)       2359808   
_________________________________________________________________
conv4_3 (Conv2D)             (None, 28, 28, 512)       2359808   
_________________________________________________________________
pool4 (MaxPooling2D)         (None, 14, 14, 512)       0         
_________________________________________________________________
conv5_1 (Conv2D)             (None, 14, 14, 512)       2359808   
_________________________________________________________________
conv5_2 (Conv2D)             (None, 14, 14, 512)       2359808   
_________________________________________________________________
conv5_3 (Conv2D)             (None, 14, 14, 512)       2359808   
_________________________________________________________________
pool5 (MaxPooling2D)         (None, 7, 7, 512)         0         
_________________________________________________________________
flatten_1 (Flatten)          (None, 25088)             0         
_________________________________________________________________
dense_1 (Dense)              (None, 5)                 125445    
=================================================================
Total params: 14,840,133
Trainable params: 125,445
Non-trainable params: 14,714,688
_________________________________________________________________



model.compile(
  loss='categorical_crossentropy',
  optimizer='adam',
  metrics=['accuracy'])
from keras.preprocessing.image import ImageDataGenerator
train_datagen = ImageDataGenerator(rescale = 1./255,
…
